923presentation/action1_weight.npz (npz, 1458 bytes, 2 tensors)

arr_0 f4 [16, 16]
0	0xbedb6cd3	-0.42856464
1	0x3cda95e4	0.026682802
2	0xbea5b74a	-0.323664
3	0xbe8092d9	-0.25112036
4	0x3e049fa6	0.12951526
5	0x3e8a67cf	0.27032325
6	0xbd984f5e	-0.07437013
7	0xbd8ccc18	-0.06874865
8	0xbe7a79c1	-0.24460508
9	0xbeb3aacb	-0.35091242
10	0xbea9197c	-0.33027256
11	0xbeda8b70	-0.42684507
12	0x3d98fca4	0.074700624
13	0x3d5d76fb	0.054068547
14	0x3e3e23dd	0.18568368
15	0x3e05f9e5	0.13083608
16	0x3e64884a	0.22317615
17	0x3e0025f0	0.12514472
18	0x3f004454	0.5010426
19	0x3e4197e3	0.18905596
20	0xbeb75a3e	-0.35811037
21	0xbe8d6705	-0.2761766
22	0xbe8863df	-0.26638696
23	0x3d9ced7e	0.076624855
24	0xbeb999b6	-0.36250085
25	0x3b7873d3	0.0037910833
26	0xbe93179c	-0.2872895
27	0x3d0a71a0	0.033799767
28	0x3f1d0157	0.6133017
29	0xbea03a69	-0.31294563
30	0xbe2bc2b3	-0.1677349
31	0xbe7cbbe3	-0.24681048
32	0x3e5adc73	0.21373157
33	0xbe0e8146	-0.13916501
34	0x3ee9b68c	0.45647085
35	0xbcf18c14	-0.02948574
36	0x3ee46243	0.44606218
37	0xbe498f11	-0.19683482
38	0x3ecc2b45	0.39876762
39	0xbeaf3be8	-0.34225392
40	0x3f0e09a5	0.55483466
41	0x3e639ab0	0.22226977
42	0xbe5f54ed	-0.2180974
43	0xbe37d68a	-0.17952934
44	0x3f09d930	0.53847027
45	0x3eb387a8	0.35064435
46	0xbe5b326f	-0.21405958
47	0x3e0772e1	0.13227417
48	0xbd96fdb0	-0.07372606
49	0xbe2182ce	-0.15772554
50	0x3e80a76f	0.25127742
51	0x3e07cd1c	0.13261837
52	0xbf480444	-0.7813151
53	0xbe5ed57b	-0.21761124
54	0x3d3c919b	0.046037298
55	0x3ee35b16	0.4440543
56	0xbe354f2a	-0.1770598
57	0xbe0a4a70	-0.13504958
58	0x3e860f35	0.26183477
59	0x3c7d9f28	0.01547984
60	0x3ebd9b20	0.37032413
61	0x3d265575	0.040608842
62	0x3ef0167c	0.46892154
63	0x3d915c96	0.070977375
64	0x3e6e25e2	0.23256639
65	0x3df5135e	0.119665846
66	0xbeb50b43	-0.35360155
67	0xbcbe1092	-0.02320126
68	0x3c10350e	0.008801712
69	0x3f23611d	0.6382006
70	0x3ed10323	0.40822706
71	0x3e05bc88	0.130602
72	0x3df78e5f	0.12087702
73	0xbc8d3625	-0.017237732
74	0xbeb106a1	-0.3457537
75	0x3e7f63ba	0.24940386
76	0x3e8401bb	0.2578257
77	0x3dc1207c	0.09430024
78	0x3d68a470	0.056797445
79	0xbece9b48	-0.40352845
80	0xbe9414ee	-0.28922218
81	0xbe298912	-0.16556194
82	0x3edafebc	0.42772472
83	0xbef07e51	-0.46971372
84	0x3d930d03	0.07180216
85	0x3e8b0578	0.2715261
86	0xbe402e35	-0.18767627
87	0xbe1678b5	-0.14694484
88	0xbe3de341	-0.18543722
89	0xbd8d1c67	-0.06890183
90	0x3e1aa9f1	0.1510389
91	0x3d844bb7	0.06459754
92	0x3eab1afe	0.3341903
93	0x3e0aaaa6	0.1354166
94	0x3da5756d	0.08079038
95	0xbe5d6f61	-0.21624519
96	0x3dcae251	0.09906448
97	0xbece2b2a	-0.40267307
98	0xbe8718eb	-0.26386198
99	0x3eaed877	0.34149525
100	0x3dfa1dba	0.12212701
101	0xbd91b160	-0.0711391
102	0x3e170cda	0.14750996
103	0xbe692e7c	-0.22771639
104	0xbc28b5d2	-0.010297256
105	0xbe2132db	-0.15742056
106	0x3dcc427f	0.099736206
107	0xbdc7e85e	-0.097611174
108	0x3d8b6ffc	0.06808469
109	0xbe2a2564	-0.16615826
110	0xbe68cbba	-0.22733966
111	0x3e30abfe	0.1725311
112	0xbdc3d94b	-0.0956293
113	0xbe50de4b	-0.20397298
114	0x3e8a400c	0.2700199
115	0x3ea42c92	0.32065254
116	0x3e6356d7	0.22201096
117	0x3ea79b12	0.32735497
118	0xbf18e420	-0.5972309
119	0x3da766ce	0.08173905
120	0x3dc35462	0.09537579
121	0x3e9960fc	0.29956806
122	0xbe35fc6c	-0.17772073
123	0x3d45eb79	0.048320267
124	0x3e3191d0	0.1734078
125	0xba19ef6e	-0.00058721646
126	0x3e21eef4	0.1581381
127	0x3cee9dfd	0.029128069
128	0x3e9ca8a2	0.30597407
129	0xbdd24d7d	-0.10268686
130	0x3e55d8f2	0.2088354
131	0xbe674269	-0.22583927
132	0xbe4bcf75	-0.19903357
133	0xbebe8e22	-0.37217814
134	0xbe17ff97	-0.14843594
135	0x3f6856bb	0.9075734
136	0xbe210091	-0.15722872
137	0xbf0dd564	-0.55403733
138	0xbd9d4865	-0.07679824
139	0x3d9a4ded	0.075343944
140	0xbe813b18	-0.25240397
141	0x3e0a4844	0.1350413
142	0xbdde0beb	-0.10842117
143	0x3e66a609	0.22524275
144	0xbeacee44	-0.33775532
145	0x3be8ca62	0.007104204
146	0xbebc8620	-0.3682108
147	0xbce5b842	-0.028041963
148	0xbe39093a	-0.18069926
149	0xbea19573	-0.31559333
150	0xbe22ff47	-0.15917693
151	0x3e4a846a	0.19777074
152	0x3e826207	0.25465414
153	0x3d9de51a	0.07709713
154	0x3e8e8d8c	0.27842367
155	0xbdc21253	-0.09476151
156	0x3dee1f64	0.11627081
157	0x3e853a30	0.26020956
158	0xbe90d851	-0.28290036
159	0xbeee6c00	-0.46566772
160	0x3dcacbfc	0.09902188
161	0xbe611e1e	-0.21984145
162	0xbe7786ce	-0.24172518
163	0xbeb77c58	-0.35837054
164	0xbebf7c2c	-0.37399423
165	0xbee79dc0	-0.4523754
166	0xbe2ecc0a	-0.17070022
167	0xbe153fb7	-0.14575087
168	0xbe68e9f8	-0.22745502
169	0x3cbeffde	0.023315366
170	0xbc2069dd	-0.009790865
171	0x3e87b72d	0.2650694
172	0xbe3207d5	-0.173858
173	0xbde20634	-0.110363394
174	0x3f0ee183	0.55812854
175	0x3e4ffe28	0.20311797
176	0x3dffc83f	0.12489366
177	0xbe38f067	-0.18060456
178	0x3e3ff4a2	0.18745664
179	0x3edd3dd3	0.4321123
180	0x3e6d31ac	0.2316348
181	0xbdc9d2a7	-0.09854632
182	0x3c928177	0.017884
183	0x3c252fb7	0.010082177
184	0x3e608dc2	0.21929076
185	0xbf0bca48	-0.5460553
186	0x3ddccc8b	0.10781201
187	0x3e097c30	0.1342628
188	0xbdb72d7a	-0.08944221
189	0x3c94ca4b	0.018162867
190	0x3e706979	0.23477735
191	0xbde94f73	-0.11392107
192	0xbe14b228	-0.14521086
193	0xbd751c48	-0.059841424
194	0xbe048321	-0.12940647
195	0xbdcc706b	-0.099823795
196	0x3dbc24dc	0.09186718
197	0x3df0e038	0.11761516
198	0xbe6bd8ad	-0.23031874
199	0x3ded7261	0.11594082
200	0x3c45bd77	0.012069098
201	0x3d88cf92	0.06680216
202	0xbe363901	-0.17795183
203	0x3e7b0792	0.24514607
204	0x3e01bf74	0.1267069
205	0x3eabf5f3	0.33586082
206	0x3efc56e6	0.49285048
207	0x3d4c201b	0.049835306
208	0x3ebf8684	0.37407315
209	0xbef15ff0	-0.47143507
210	0xbe66db24	-0.22544533
211	0xbdf4b1e3	-0.11947992
212	0xbe1b0847	-0.15139876
213	0xbd5623f9	-0.0522804
214	0xbec5641d	-0.38552943
215	0xbe1b8767	-0.1518837
216	0xbdb1f0c0	-0.086884975
217	0xbe0ab271	-0.13544632
218	0xbd0a48c7	-0.033760812
219	0x3e5156bb	0.20443241
220	0x3db1c47a	0.08680053
221	0xbe3f91bf	-0.18707941
222	0xbebb41bf	-0.36573598
223	0xbdcf87f6	-0.10133354
224	0xbc1d49ab	-0.009600083
225	0xbe93823c	-0.28810298
226	0xbda16be5	-0.078819074
227	0x3ea639e2	0.32466036
228	0xbf07aca9	-0.52997833
229	0xbdc2feb0	-0.09521234
230	0xbe8aea4e	-0.27131885
231	0x3dc9a479	0.09845824
232	0xbe6be38a	-0.23036018
233	0x3e314162	0.17310098
234	0xbf0239a5	-0.5086921
235	0xbdc37d20	-0.0954535
236	0xbec98292	-0.3935743
237	0x3e7f7fd8	0.24951112
238	0xbe61ea03	-0.22061925
239	0xbe40c897	-0.18826519
240	0x3e96927e	0.2940864
241	0x3e5a6b51	0.2133
242	0x3e8227b6	0.25420922
243	0xbdc1b1bb	-0.094577275
244	0xbdcc1006	-0.09963994
245	0x3df79db6	0.12090628
246	0xbe87bbb7	-0.26510403
247	0xbd21c983	-0.039498817
248	0x3df7ff46	0.121092364
249	0x3d49e5bd	0.04929136
250	0x3e652dd1	0.22380759
251	0xbf1298b8	-0.5726428
252	0x3ded6012	0.115905896
253	0x3de9e254	0.11420122
254	0x3e909707	0.28240225
255	0xbe8e9228	-0.27845883

arr_1 f4 [16]
0	0x3d84b921	0.06480623
1	0x3e828265	0.25490108
2	0xbe88aff0	-0.2669673
3	0xbdfc66f7	-0.123243265
4	0x3e15b23a	0.1461877
5	0xbdeb808b	-0.11499127
6	0x3db5a861	0.08870006
7	0xbd213e6f	-0.039366182
8	0x3e60cb7a	0.2195262
9	0xbd1dcf65	-0.038527865
10	0xbec8efed	-0.3924555
11	0x3d2beade	0.041972034
12	0xbd33a55c	-0.04385887
13	0xbe414140	-0.18872547
14	0xbd909fa1	-0.07061697
15	0xbe9fe9d3	-0.3123308
