923presentation/action2_weight.npz (npz, 1458 bytes, 2 tensors)

arr_0 f4 [16, 16]
0	0xbbde58bb	-0.00678548
1	0x3dcf3ee8	0.1011942
2	0x3edf5063	0.43616018
3	0x3ce576b1	0.028010698
4	0x3f320ba6	0.69549024
5	0xbca6111f	-0.020271836
6	0xbdad250f	-0.08454334
7	0x3db8d4ea	0.09024985
8	0x3e8d80d1	0.27637342
9	0x3dd24a43	0.102680705
10	0x3ea3b14d	0.31971207
11	0xbf121735	-0.5706666
12	0xbee3ee40	-0.44517708
13	0x3c39e43d	0.01134592
14	0xbeef0411	-0.4668279
15	0xbe162abf	-0.14664744
16	0x3abd17ab	0.0014426609
17	0x3e5444f5	0.2072943
18	0x3d88fb14	0.06688514
19	0xbdb60fc6	-0.08889727
20	0xbe0ef14b	-0.13959233
21	0xbece08a6	-0.40240973
22	0x3e7ce33f	0.24696063
23	0xbeef2f69	-0.4671586
24	0xbee31c6f	-0.4435763
25	0x3e2440e4	0.16040379
26	0x3dc21039	0.094757505
27	0x3e0bbc86	0.13646135
28	0xbeabede7	-0.33579943
29	0xbe9ef384	-0.31045163
30	0xbf1b731c	-0.6072252
31	0x3ec2b121	0.38025764
32	0xbf5a616d	-0.8530491
33	0x3ea74cdf	0.32675835
34	0x3e8c7a9b	0.2743729
35	0xbe4d8028	-0.20068419
36	0xbe7350db	-0.23761313
37	0x3ea1ee92	0.31627327
38	0xbf1b5237	-0.60672325
39	0x3d86afaa	0.06576474
40	0xbed21e8b	-0.41038927
41	0x3da56581	0.08076001
42	0xbf2f5309	-0.68486077
43	0x3ebe2cb1	0.37143472
44	0x3d432329	0.047640953
45	0xbca9ba43	-0.0207187
46	0xbe918d37	-0.2842805
47	0xbecaf7f1	-0.3964229
48	0x3ed7f875	0.42181745
49	0x3e691616	0.22762331
50	0xbc860592	-0.016360078
51	0x3dd23130	0.10263288
52	0xbecab001	-0.39587405
53	0xbec99c7b	-0.39377198
54	0xbe6de090	-0.23230195
55	0x3c9f8862	0.019474212
56	0x3e1616a0	0.14657068
57	0x3f13679e	0.5757998
58	0x3e1352c2	0.14387038
59	0xbdca8e10	-0.098903775
60	0xbf1fa373	-0.6235878
61	0x3ebb99ff	0.36640927
62	0x3ed830a2	0.42224604
63	0xbed90038	-0.4238298
64	0xbd196e0b	-0.03745846
65	0xbf3d76f2	-0.7400962
66	0xbe28f9d8	-0.16501558
67	0x3eb514af	0.35367343
68	0x3e4b0a74	0.19828206
69	0xbf3935b5	-0.72347575
70	0xbf054bfe	-0.5206908
71	0xbdccdd4f	-0.10003149
72	0x3eb11be7	0.345916
73	0xbf2d5630	-0.67709637
74	0x3dc64f5f	0.096831076
75	0xbeb80ba8	-0.35946393
76	0x3ea2d952	0.31806427
77	0xbe032b47	-0.12809478
78	0xb8f144e2	-0.00011504606
79	0xbe993ace	-0.29927677
80	0xbd741ae8	-0.059595972
81	0x3e8a2b37	0.26986095
82	0xbd612345	-0.054965276
83	0x3da8755e	0.08225511
84	0x3d8549a4	0.065081865
85	0x388d3188	6.73263e-05
86	0xbe9d4474	-0.30716288
87	0x3e5964b8	0.21229827
88	0x3f1b9d08	0.60786486
89	0xbeb3e2b7	-0.35133907
90	0x3d013f0f	0.031554278
91	0x3e96cdcf	0.29453894
92	0x3ee0c8a1	0.43903068
93	0xbee30867	-0.44342348
94	0xbe8ba255	-0.27272287
95	0xbc62ae50	-0.013835505
96	0xbf9ab177	-1.2085408
97	0xbf178066	-0.59180295
98	0xbef47819	-0.47747877
99	0xbdf5b78f	-0.11997902
100	0x3da99dff	0.082820885
101	0x3ea8e08e	0.32983822
102	0xbe8f8113	-0.28028163
103	0x3ef6695c	0.48127258
104	0x3e92c776	0.28667802
105	0xbee05677	-0.43815967
106	0x3d811e7e	0.06304644
107	0x3efc1a35	0.49238744
108	0xbccee9d4	-0.025257982
109	0xbe47beb6	-0.19506344
110	0xbf037642	-0.5135232
111	0x3d3a180a	0.04543308
112	0xbdf8d916	-0.12150781
113	0xbec71e5b	-0.38890347
114	0xbe9cf16a	-0.30652934
115	0xbdcc1950	-0.099657655
116	0x3d945d07	0.07244306
117	0x3d7ebeff	0.062193867
118	0xbf3cfcb1	-0.73823076
119	0xbec0a794	-0.37627852
120	0x3e227a49	0.1586696
121	0xbf05ba17	-0.52237076
122	0xbea724cd	-0.32645264
123	0x3e0d0bc6	0.13774022
124	0xbe23cc15	-0.1599582
125	0x3e9f3b5c	0.31099975
126	0x3deb4c06	0.1148911
127	0x3f5040cc	0.8134887
128	0xbf45be0c	-0.77243114
129	0x3e2b8384	0.16749388
130	0x3cff0071	0.03112814
131	0xbf344de0	-0.7043133
132	0x3e261623	0.16219382
133	0x3cd5368f	0.026026992
134	0x3f0127f3	0.5045158
135	0x3e9ce463	0.30642995
136	0xbeba3a22	-0.36372477
137	0xbf06a670	-0.52597713
138	0xbe4763ae	-0.19471619
139	0x3cfebef6	0.031096917
140	0x3e6c98a8	0.23105109
141	0x3ef6c787	0.48199102
142	0xbe16b19e	-0.14716193
143	0xbd051de7	-0.03249922
144	0x3f01ec1d	0.50750905
145	0x3f27eaad	0.6559246
146	0x3e0bd556	0.136556
147	0xbdc3e078	-0.095642984
148	0xbdc25b92	-0.09490122
149	0x3eae5dbd	0.34055892
150	0xbe67f118	-0.22650564
151	0x3d3bbaa0	0.045832276
152	0xbd6bea5e	-0.057596557
153	0x3eee4948	0.46540284
154	0x3e851c4c	0.2599815
155	0xbe259148	-0.16168702
156	0x3f04a204	0.51809716
157	0xbd175ca6	-0.03695359
158	0xbe6aa93d	-0.22916122
159	0xbf17dfef	-0.5932607
160	0x3d8ddc59	0.069267936
161	0xbefb22cc	-0.49049985
162	0xbec45f37	-0.38353893
163	0x3d33284f	0.043739613
164	0x3e4ae119	0.1981243
165	0x3bdd8dfb	0.00676131
166	0x3e15aa14	0.14615661
167	0x3d04687a	0.0323262
168	0x3dd68748	0.104750216
169	0x3e17987f	0.14804266
170	0xbf1a4ff2	-0.60278237
171	0xbdd8762a	-0.10569413
172	0xbe782fbe	-0.24236962
173	0x3e801c1f	0.25021455
174	0xbf50ced8	-0.8156562
175	0x3e791736	0.2432526
176	0x3f17094b	0.58998555
177	0x3d56eafe	0.0524702
178	0xbdc759e5	-0.09733943
179	0xbe6de84e	-0.23233148
180	0xbdc2b40d	-0.09506998
181	0x3e94bffd	0.29052725
182	0x3ea8c260	0.32960796
183	0x3ea99132	0.33118588
184	0xbe1e067e	-0.15432164
185	0xbe5bc553	-0.21461992
186	0xbe5dc3b0	-0.2165668
187	0xbdc61120	-0.09671235
188	0xbe28096a	-0.16409841
189	0xbe73e00e	-0.23815939
190	0xbeab76b2	-0.33488995
191	0xbdd6781e	-0.10472129
192	0xbe3e49ba	-0.18582812
193	0xbf147154	-0.57985425
194	0x3e41c248	0.18921769
195	0xbe09469c	-0.13405842
196	0x3e3c0c99	0.1836418
197	0x3dfab689	0.12241847
198	0xbe6b8c9b	-0.23002855
199	0x3ed3c907	0.4136431
200	0xbf1c0621	-0.6094685
201	0xba29b782	-0.0006474183
202	0x3dbe7613	0.092998646
203	0x3f18aeac	0.5964153
204	0x3e8af29a	0.27138215
205	0xbcd0e99b	-0.025502017
206	0x3d6fa785	0.05850937
207	0x3d420f15	0.047377665
208	0x3e90a567	0.28251192
209	0x3dbc6d60	0.09200549
210	0xbe1ac98e	-0.1511595
211	0xbf79422a	-0.97366583
212	0x3cc95d5a	0.024580646
213	0xbe8d01e9	-0.2754052
214	0x3ea46ce0	0.32114315
215	0x3dcbcd24	0.09951237
216	0x3d4a53a7	0.049396183
217	0x3ec08b9b	0.3760651
218	0xbe1a520f	-0.15070365
219	0x3e901c5f	0.28146645
220	0xbf181283	-0.59403247
221	0x3ed2c28a	0.41164047
222	0xbedd2440	-0.4319172
223	0x3d33893d	0.043832052
224	0x3b831116	0.0039998395
225	0xbcdb5068	-0.02677174
226	0xbea6408e	-0.32471126
227	0xbe69b5a9	-0.22823204
228	0x3f125cff	0.5717315
229	0x3eb4d9b2	0.35322338
230	0x3d52cdb3	0.0514657
231	0xbe9d2c4c	-0.30697858
232	0xbeaf6bd5	-0.34261957
233	0x3d06f890	0.03295189
234	0x3dbbf7fa	0.09178157
235	0xbde68d9a	-0.11257477
236	0xbef7bf1d	-0.48387995
237	0xbe537eb9	-0.2065381
238	0x3f259ab1	0.64689165
239	0xbd897193	-0.06711116
240	0xbe8bef57	-0.2733104
241	0x3ed36a84	0.41292202
242	0xbf2afd98	-0.66793203
243	0xbdefd972	-0.11711396
244	0xbce52354	-0.027970947
245	0xbea1d26d	-0.31605855
246	0xbeaf6bcf	-0.3426194
247	0xbda9ff7a	-0.083006814
248	0xbda1e6ea	-0.079053715
249	0xbe83d3aa	-0.25747424
250	0x3ebc4c0b	0.36776766
251	0xbecf2d93	-0.40464458
252	0xbe53effd	-0.20697017
253	0x3ea08dd2	0.313582
254	0x3dad69cf	0.08467447
255	0xbf05ec1e	-0.5231341

arr_1 f4 [16]
0	0xbec059af	-0.37568423
1	0xbe6cf8b0	-0.23141742
2	0x3e6773a8	0.22602713
3	0xbee2f24d	-0.44325486
4	0xbe091f5b	-0.13390867
5	0x3ed3626b	0.41286024
6	0x3dee30e7	0.11630421
7	0xbf201deb	-0.6254565
8	0xbd4840c2	-0.048889883
9	0xbdc6db8f	-0.09709846
10	0x3dd41198	0.10354918
11	0x3e826b0a	0.2547229
12	0xbe43e12c	-0.19128865
13	0x3e35075c	0.17678589
14	0xbeb814fd	-0.35953513
15	0xbe683ba1	-0.22678997
